…
     "iopub.execute_input": "2020-12-24T19:47:36.890461Z",
     "iopub.status.busy": "2020-12-24T19:47:36.890461Z",
     "iopub.status.idle": "2020-12-24T19:47:36.909440Z",
     "shell.execute_reply": "2020-12-24T19:47:36.909440Z"
    }
   },
   "outputs": [
    {
     "data": {
      "text/plain": [
       "==========================================================================================\n",
       "Layer (type:depth-idx)                   Output Shape              Param #\n",
       "==========================================================================================\n",
       "├─Sequential: 1-1                        [-1, 4]                   --\n",
       "|    └─ConvBlock: 2-1                    [-1, 8, 28, 28]           --\n",
       "|    |    └─Sequential: 3-1              [-1, 8, 28, 28]           696\n",
       "|    └─MaxPool2d: 2-2                    [-1, 8, 14, 14]           --\n",
       "|    └─ConvBlock: 2-3                    [-1, 16, 10, 10]          --\n",
       "|    |    └─Sequential: 3-2              [-1, 16, 10, 10]          3,552\n",
       "|    └─MaxPool2d: 2-4                    [-1, 16, 5, 5]            --\n",
       "|    └─Dropout: 2-5                      [-1, 16, 5, 5]            --\n",
       "|    └─Flatten: 2-6                      [-1, 400]                 --\n",
       "|    └─Linear: 2-7                       [-1, 32]                  12,832\n",
       "|    └─ReLU: 2-8                         [-1, 32]                  --\n",
       "|    └─Linear: 2-9                       [-1, 4]                   132\n",
       "==========================================================================================\n",
       "Total params: 17,212\n",
       "Trainable params: 17,212\n",
       "Non-trainable params: 0\n",
       "Total mult-adds (M): 0.95\n",
       "==========================================================================================\n",
       "Input size (MB): 0.00\n",
       "Forward/backward pass size (MB): 0.27\n",
…
