…
     "iopub.status.idle": "2020-12-24T19:48:04.948697Z",
     "shell.execute_reply": "2020-12-24T19:48:04.949696Z"
    }
   },
   "outputs": [
    {
     "data": {
      "text/plain": [
       "==========================================================================================\n",
       "Layer (type:depth-idx)                   Output Shape              Param #\n",
       "==========================================================================================\n",
       "├─ModuleList: 1                          []                        --\n",
       "|    └─Encoder: 2-1                      [-1, 32, 256, 256]        --\n",
       "|    |    └─Sequential: 3-1              [-1, 32, 256, 256]        4,896\n",
       "├─ModuleList: 1                          []                        --\n",
       "|    └─MaxPool2d: 2-2                    [-1, 32, 128, 128]        --\n",
       "├─ModuleList: 1                          []                        --\n",
       "|    └─Encoder: 2-3                      [-1, 64, 128, 128]        --\n",
       "|    |    └─Sequential: 3-2              [-1, 64, 128, 128]        27,936\n",
       "├─ModuleList: 1                          []                        --\n",
       "|    └─MaxPool2d: 2-4                    [-1, 64, 64, 64]          --\n",
       "├─ModuleList: 1                          []                        --\n",
       "|    └─Encoder: 2-5                      [-1, 128, 64, 64]         --\n",
       "|    |    └─Sequential: 3-3              [-1, 128, 64, 64]         111,168\n",
       "├─ModuleList: 1                          []                        --\n",
       "|    └─MaxPool2d: 2-6                    [-1, 128, 32, 32]         --\n",
       "├─ModuleList: 1                          []                        --\n",
       "|    └─Encoder: 2-7                      [-1, 256, 32, 32]         --\n",
       "|    |    └─Sequential: 3-4              [-1, 256, 32, 32]         443,520\n",
       "├─ModuleList: 1                          []                        --\n",
       "|    └─MaxPool2d: 2-8                    [-1, 256, 16, 16]         --\n",
       "├─ModuleList: 1                          []                        --\n",
       "|    └─Encoder: 2-9                      [-1, 512, 16, 16]         --\n",
       "|    |    └─Sequential: 3-5              [-1, 512, 16, 16]         1,771,776\n",
       "├─ModuleList: 1                          []                        --\n",
       "|    └─MaxPool2d: 2-10                   [-1, 512, 8, 8]           --\n",
       "├─ModuleList: 1                          []                        --\n",
       "|    └─Encoder: 2-11                     [-1, 1024, 8, 8]          --\n",
       "|    |    └─Sequential: 3-6              [-1, 1024, 8, 8]          7,082,496\n",
       "├─ModuleList: 1                          []                        --\n",
       "|    └─Decoder: 2-12                     [-1, 512, 16, 16]         --\n",
       "|    |    └─Upsample: 3-7                [-1, 1024, 16, 16]        --\n",
       "|    |    └─Sequential: 3-8              [-1, 512, 16, 16]         18,878,976\n",
       "|    |    └─Dropout: 3-9                 [-1, 512, 16, 16]         --\n",
       "|    └─Decoder: 2-13                     [-1, 256, 32, 32]         --\n",
       "|    |    └─Upsample: 3-10               [-1, 512, 32, 32]         --\n",
       "|    |    └─Sequential: 3-11             [-1, 256, 32, 32]         4,720,896\n",
       "|    |    └─Dropout: 3-12                [-1, 256, 32, 32]         --\n",
       "|    └─Decoder: 2-14                     [-1, 128, 64, 64]         --\n",
       "|    |    └─Upsample: 3-13               [-1, 256, 64, 64]         --\n",
       "|    |    └─Sequential: 3-14             [-1, 128, 64, 64]         1,180,800\n",
       "|    |    └─Dropout: 3-15                [-1, 128, 64, 64]         --\n",
       "|    └─Decoder: 2-15                     [-1, 64, 128, 128]        --\n",
       "|    |    └─Upsample: 3-16               [-1, 128, 128, 128]       --\n",
       "|    |    └─Sequential: 3-17             [-1, 64, 128, 128]        295,488\n",
       "|    └─Decoder: 2-16                     [-1, 32, 256, 256]        --\n",
       "|    |    └─Upsample: 3-18               [-1, 64, 256, 256]        --\n",
       "|    |    └─Sequential: 3-19             [-1, 32, 256, 256]        74,016\n",
       "├─Conv2d: 1-1                            [-1, 1, 256, 256]         33\n",
       "==========================================================================================\n",
       "Total params: 34,592,001\n",
       "Trainable params: 34,592,001\n",
       "Non-trainable params: 0\n",
       "Total mult-adds (M): 105.84\n",
       "==========================================================================================\n",
       "Input size (MB): 0.25\n",
       "Forward/backward pass size (MB): 0.50\n",
…
     "iopub.execute_input": "2020-12-24T19:48:04.956689Z",
     "iopub.status.busy": "2020-12-24T19:48:04.955690Z",
     "iopub.status.idle": "2020-12-24T19:48:05.098545Z",
     "shell.execute_reply": "2020-12-24T19:48:05.097546Z"
    }
   },
   "outputs": [
    {
     "data": {
      "text/plain": [
       "==========================================================================================\n",
       "Layer (type:depth-idx)                   Output Shape              Param #\n",
       "==========================================================================================\n",
       "├─Sequential: 1-1                        [-1, 1, 10, 10]           --\n",
       "|    └─ConvBNReLU: 2-1                   [-1, 16, 254, 254]        --\n",
       "|    |    └─Sequential: 3-1              [-1, 16, 254, 254]        336\n",
       "|    └─ConvBNReLU: 2-2                   [-1, 32, 252, 252]        --\n",
       "|    |    └─Sequential: 3-2              [-1, 32, 252, 252]        4,704\n",
       "|    └─MaxPool2d: 2-3                    [-1, 32, 126, 126]        --\n",
       "|    └─ConvBNReLU: 2-4                   [-1, 32, 124, 124]        --\n",
       "|    |    └─Sequential: 3-3              [-1, 32, 124, 124]        9,312\n",
       "|    └─ConvBNReLU: 2-5                   [-1, 64, 122, 122]        --\n",
       "|    |    └─Sequential: 3-4              [-1, 64, 122, 122]        18,624\n",
       "|    └─MaxPool2d: 2-6                    [-1, 64, 61, 61]          --\n",
       "|    └─ConvBNReLU: 2-7                   [-1, 64, 59, 59]          --\n",
       "|    |    └─Sequential: 3-5              [-1, 64, 59, 59]          37,056\n",
       "|    └─ConvBNReLU: 2-8                   [-1, 128, 57, 57]         --\n",
       "|    |    └─Sequential: 3-6              [-1, 128, 57, 57]         74,112\n",
       "|    └─MaxPool2d: 2-9                    [-1, 128, 28, 28]         --\n",
       "|    └─ConvBNReLU: 2-10                  [-1, 128, 26, 26]         --\n",
       "|    |    └─Sequential: 3-7              [-1, 128, 26, 26]         147,840\n",
       "|    └─ConvBNReLU: 2-11                  [-1, 256, 24, 24]         --\n",
       "|    |    └─Sequential: 3-8              [-1, 256, 24, 24]         295,680\n",
       "|    └─MaxPool2d: 2-12                   [-1, 256, 12, 12]         --\n",
       "|    └─Conv2d: 2-13                      [-1, 1, 10, 10]           2,305\n",
       "==========================================================================================\n",
       "Total params: 589,969\n",
       "Trainable params: 589,969\n",
       "Non-trainable params: 0\n",
       "Total mult-adds (G): 1.37\n",
       "==========================================================================================\n",
       "Input size (MB): 0.50\n",
       "Forward/backward pass size (MB): 82.12\n",
…
