…
     "iopub.status.idle": "2020-12-24T19:58:30.385322Z",
     "shell.execute_reply": "2020-12-24T19:58:30.385322Z"
    }
   },
   "outputs": [
    {
     "data": {
      "text/plain": [
       "==========================================================================================\n",
       "Layer (type:depth-idx)                   Output Shape              Param #\n",
       "==========================================================================================\n",
       "├─ModuleList: 1                          []                        --\n",
       "|    └─Encoder: 2-1                      [-1, 16, 512, 512]        --\n",
       "|    |    └─Sequential: 3-1              [-1, 16, 512, 512]        1,296\n",
       "├─ModuleList: 1                          []                        --\n",
       "|    └─MaxPool2d: 2-2                    [-1, 16, 256, 256]        --\n",
       "├─ModuleList: 1                          []                        --\n",
       "|    └─Encoder: 2-3                      [-1, 32, 256, 256]        --\n",
       "|    |    └─Sequential: 3-2              [-1, 32, 256, 256]        7,056\n",
       "├─ModuleList: 1                          []                        --\n",
       "|    └─MaxPool2d: 2-4                    [-1, 32, 128, 128]        --\n",
       "├─ModuleList: 1                          []                        --\n",
       "|    └─Encoder: 2-5                      [-1, 64, 128, 128]        --\n",
       "|    |    └─Sequential: 3-3              [-1, 64, 128, 128]        27,936\n",
       "├─ModuleList: 1                          []                        --\n",
       "|    └─MaxPool2d: 2-6                    [-1, 64, 64, 64]          --\n",
       "├─ModuleList: 1                          []                        --\n",
       "|    └─Encoder: 2-7                      [-1, 128, 64, 64]         --\n",
       "|    |    └─Sequential: 3-4              [-1, 128, 64, 64]         111,168\n",
       "├─ModuleList: 1                          []                        --\n",
       "|    └─Decoder: 2-8                      [-1, 64, 128, 128]        --\n",
       "|    |    └─Upsample: 3-5                [-1, 128, 128, 128]       --\n",
       "|    |    └─Sequential: 3-6              [-1, 64, 128, 128]        295,488\n",
       "|    |    └─Dropout: 3-7                 [-1, 64, 128, 128]        --\n",
       "|    └─Decoder: 2-9                      [-1, 32, 256, 256]        --\n",
       "|    |    └─Upsample: 3-8                [-1, 64, 256, 256]        --\n",
       "|    |    └─Sequential: 3-9              [-1, 32, 256, 256]        74,016\n",
       "|    |    └─Dropout: 3-10                [-1, 32, 256, 256]        --\n",
       "|    └─Decoder: 2-10                     [-1, 16, 512, 512]        --\n",
       "|    |    └─Upsample: 3-11               [-1, 32, 512, 512]        --\n",
       "|    |    └─Sequential: 3-12             [-1, 16, 512, 512]        18,576\n",
       "├─Conv2d: 1-1                            [-1, 1, 512, 512]         17\n",
       "==========================================================================================\n",
       "Total params: 535,553\n",
       "Trainable params: 535,553\n",
       "Non-trainable params: 0\n",
       "Total mult-adds (M): 5.80\n",
       "==========================================================================================\n",
       "Input size (MB): 1.00\n",
       "Forward/backward pass size (MB): 2.00\n",
…
