…
    "<div class=\"alert alert-block alert-warning\">\n",
    "<b>注意:</b> BatchNormalizationレイヤーのmomentumのデフォルト値は0.99だが、それだとうまくいかなかったので0.90を指定している。\n",
    "</div>"
   ]
  },
  {
   "cell_type": "code",
   "execution_count": 8,
   "metadata": {},
   "outputs": [
    {
     "name": "stdout",
     "output_type": "stream",
     "text": [
      "Model: \"sequential\"\n",
      "_________________________________________________________________\n",
      "Layer (type)                 Output Shape              Param #   \n",
      "=================================================================\n",
      "conv2d (Conv2D)              (None, 62, 62, 4)         40        \n",
      "_________________________________________________________________\n",
      "conv2d_1 (Conv2D)            (None, 60, 60, 4)         148       \n",
      "_________________________________________________________________\n",
      "batch_normalization (BatchNo (None, 60, 60, 4)         16        \n",
      "_________________________________________________________________\n",
      "max_pooling2d (MaxPooling2D) (None, 30, 30, 4)         0         \n",
      "_________________________________________________________________\n",
      "conv2d_2 (Conv2D)            (None, 28, 28, 8)         296       \n",
      "_________________________________________________________________\n",
      "conv2d_3 (Conv2D)            (None, 26, 26, 8)         584       \n",
      "_________________________________________________________________\n",
      "batch_normalization_1 (Batch (None, 26, 26, 8)         32        \n",
      "_________________________________________________________________\n",
      "max_pooling2d_1 (MaxPooling2 (None, 13, 13, 8)         0         \n",
      "_________________________________________________________________\n",
      "conv2d_4 (Conv2D)            (None, 11, 11, 16)        1168      \n",
      "_________________________________________________________________\n",
      "conv2d_5 (Conv2D)            (None, 9, 9, 16)          2320      \n",
      "_________________________________________________________________\n",
      "batch_normalization_2 (Batch (None, 9, 9, 16)          64        \n",
      "_________________________________________________________________\n",
      "max_pooling2d_2 (MaxPooling2 (None, 4, 4, 16)          0         \n",
      "_________________________________________________________________\n",
      "dropout (Dropout)            (None, 4, 4, 16)          0         \n",
      "_________________________________________________________________\n",
      "flatten (Flatten)            (None, 256)               0         \n",
      "_________________________________________________________________\n",
      "dense (Dense)                (None, 32)                8224      \n",
      "_________________________________________________________________\n",
      "dense_1 (Dense)              (None, 1)                 33        \n",
      "=================================================================\n",
      "Total params: 12,925\n",
      "Trainable params: 12,869\n",
      "Non-trainable params: 56\n",
      "_________________________________________________________________\n"
     ]
    }
   ],
   "source": [
    "import tensorflow as tf\n",
    "from tensorflow.keras import layers\n",
    "\n",
    "model = tf.keras.Sequential()\n",
…
