…
     "iopub.execute_input": "2020-12-24T19:59:30.756999Z",
     "iopub.status.busy": "2020-12-24T19:59:30.756999Z",
     "iopub.status.idle": "2020-12-24T19:59:31.191003Z",
     "shell.execute_reply": "2020-12-24T19:59:31.192002Z"
    }
   },
   "outputs": [
    {
     "data": {
      "text/plain": [
       "==========================================================================================\n",
       "Layer (type:depth-idx)                   Output Shape              Param #\n",
       "==========================================================================================\n",
       "├─Sequential: 1-1                        [-1, 1]                   --\n",
       "|    └─ConvBNReLU: 2-1                   [-1, 4, 60, 60]           --\n",
       "|    |    └─Sequential: 3-1              [-1, 4, 60, 60]           204\n",
       "|    └─MaxPool2d: 2-2                    [-1, 4, 30, 30]           --\n",
       "|    └─ConvBNReLU: 2-3                   [-1, 8, 26, 26]           --\n",
       "|    |    └─Sequential: 3-2              [-1, 8, 26, 26]           912\n",
       "|    └─MaxPool2d: 2-4                    [-1, 8, 13, 13]           --\n",
       "|    └─ConvBNReLU: 2-5                   [-1, 16, 9, 9]            --\n",
       "|    |    └─Sequential: 3-3              [-1, 16, 9, 9]            3,552\n",
       "|    └─MaxPool2d: 2-6                    [-1, 16, 4, 4]            --\n",
       "|    └─Dropout: 2-7                      [-1, 16, 4, 4]            --\n",
       "|    └─Flatten: 2-8                      [-1, 256]                 --\n",
       "|    └─Linear: 2-9                       [-1, 32]                  8,224\n",
       "|    └─ReLU: 2-10                        [-1, 32]                  --\n",
       "|    └─Linear: 2-11                      [-1, 1]                   33\n",
       "==========================================================================================\n",
       "Total params: 12,925\n",
       "Trainable params: 12,925\n",
       "Non-trainable params: 0\n",
       "Total mult-adds (M): 1.63\n",
       "==========================================================================================\n",
       "Input size (MB): 0.02\n",
       "Forward/backward pass size (MB): 0.68\n",
…
