…
     "iopub.execute_input": "2020-12-24T20:00:32.983845Z",
     "iopub.status.busy": "2020-12-24T20:00:32.983845Z",
     "iopub.status.idle": "2020-12-24T20:00:33.331056Z",
     "shell.execute_reply": "2020-12-24T20:00:33.332055Z"
    }
   },
   "outputs": [
    {
     "data": {
      "text/plain": [
       "==========================================================================================\n",
       "Layer (type:depth-idx)                   Output Shape              Param #\n",
       "==========================================================================================\n",
       "├─MobileNetFeatures: 1-1                 [-1, 1280, 7, 7]          --\n",
       "|    └─Sequential: 2-1                   [-1, 1280, 7, 7]          --\n",
       "|    |    └─ConvBNReLU: 3-1              [-1, 32, 112, 112]        928\n",
       "|    |    └─InvertedResidual: 3-2        [-1, 16, 112, 112]        896\n",
       "|    |    └─InvertedResidual: 3-3        [-1, 24, 56, 56]          5,136\n",
       "|    |    └─InvertedResidual: 3-4        [-1, 24, 56, 56]          8,832\n",
       "|    |    └─InvertedResidual: 3-5        [-1, 32, 28, 28]          10,000\n",
       "|    |    └─InvertedResidual: 3-6        [-1, 32, 28, 28]          14,848\n",
       "|    |    └─InvertedResidual: 3-7        [-1, 32, 28, 28]          14,848\n",
       "|    |    └─InvertedResidual: 3-8        [-1, 64, 14, 14]          21,056\n",
       "|    |    └─InvertedResidual: 3-9        [-1, 64, 14, 14]          54,272\n",
       "|    |    └─InvertedResidual: 3-10       [-1, 64, 14, 14]          54,272\n",
       "|    |    └─InvertedResidual: 3-11       [-1, 64, 14, 14]          54,272\n",
       "|    |    └─InvertedResidual: 3-12       [-1, 96, 14, 14]          66,624\n",
       "|    |    └─InvertedResidual: 3-13       [-1, 96, 14, 14]          118,272\n",
       "|    |    └─InvertedResidual: 3-14       [-1, 96, 14, 14]          118,272\n",
       "|    |    └─InvertedResidual: 3-15       [-1, 160, 7, 7]           155,264\n",
       "|    |    └─InvertedResidual: 3-16       [-1, 160, 7, 7]           320,000\n",
       "|    |    └─InvertedResidual: 3-17       [-1, 160, 7, 7]           320,000\n",
       "|    |    └─InvertedResidual: 3-18       [-1, 320, 7, 7]           473,920\n",
       "|    |    └─ConvBNReLU: 3-19             [-1, 1280, 7, 7]          412,160\n",
       "├─Sequential: 1-2                        [-1, 32, 3, 3]            --\n",
       "|    └─Conv2d: 2-2                       [-1, 128, 5, 5]           1,474,688\n",
       "|    └─BatchNorm2d: 2-3                  [-1, 128, 5, 5]           256\n",
       "|    └─ReLU: 2-4                         [-1, 128, 5, 5]           --\n",
       "|    └─Conv2d: 2-5                       [-1, 32, 3, 3]            36,896\n",
       "|    └─BatchNorm2d: 2-6                  [-1, 32, 3, 3]            64\n",
       "|    └─ReLU: 2-7                         [-1, 32, 3, 3]            --\n",
       "├─Sequential: 1-3                        [-1, 7]                   --\n",
       "|    └─Flatten: 2-8                      [-1, 288]                 --\n",
       "|    └─Linear: 2-9                       [-1, 7]                   2,023\n",
       "==========================================================================================\n",
       "Total params: 3,737,799\n",
       "Trainable params: 3,737,799\n",
       "Non-trainable params: 0\n",
       "Total mult-adds (M): 79.32\n",
       "==========================================================================================\n",
       "Input size (MB): 0.57\n",
       "Forward/backward pass size (MB): 7.14\n",
…
